Here is a summary of this model: 
Model: "sequential"
_________________________________________________________________
 Layer (type)                Output Shape              Param #   
=================================================================
 dense (Dense)               (None, 3)                 12        
                                                                 
 dense_1 (Dense)             (None, 32)                128       
                                                                 
 dense_2 (Dense)             (None, 64)                2112      
                                                                 
 dense_3 (Dense)             (None, 128)               8320      
                                                                 
 dense_4 (Dense)             (None, 1)                 129       
                                                                 
=================================================================
Total params: 10,701
Trainable params: 10,701
Non-trainable params: 0
_________________________________________________________________
Epoch 1/15

Epoch: 0, accuracy:0.7679,  loss:0.2088,  val_accuracy:0.8268,  val_loss:0.1101,  
.28/28 - 0s - loss: 0.2088 - accuracy: 0.7679 - val_loss: 0.1101 - val_accuracy: 0.8268 - 420ms/epoch - 15ms/step
…
