Here is a summary of this model: 
Model: "sequential"
_________________________________________________________________
 Layer (type)                Output Shape              Param #   
=================================================================
 dense (Dense)               (None, 3)                 12        
                                                                 
 dense_1 (Dense)             (None, 64)                256       
                                                                 
 dense_2 (Dense)             (None, 64)                4160      
                                                                 
 dense_3 (Dense)             (None, 64)                4160      
                                                                 
 dense_4 (Dense)             (None, 64)                4160      
                                                                 
 dense_5 (Dense)             (None, 64)                4160      
                                                                 
 dense_6 (Dense)             (None, 1)                 65        
                                                                 
=================================================================
Total params: 16,973
Trainable params: 16,973
Non-trainable params: 0
_________________________________________________________________
Epoch 1/15

Epoch: 0, accuracy:0.7645,  loss:0.2342,  val_accuracy:0.8007,  val_loss:0.0899,  
.28/28 - 0s - loss: 0.2342 - accuracy: 0.7645 - val_loss: 0.0899 - val_accuracy: 0.8007 - 465ms/epoch - 17ms/step
…
