Here is a summary of this model: 
Model: "sequential"
_________________________________________________________________
 Layer (type)                Output Shape              Param #   
=================================================================
 dense (Dense)               (None, 3)                 12        
                                                                 
 dense_1 (Dense)             (None, 128)               512       
                                                                 
 dense_2 (Dense)             (None, 256)               33024     
                                                                 
 dense_3 (Dense)             (None, 512)               131584    
                                                                 
 dense_4 (Dense)             (None, 1)                 513       
                                                                 
=================================================================
Total params: 165,645
Trainable params: 165,645
Non-trainable params: 0
_________________________________________________________________
Epoch 1/15

Epoch: 0, accuracy:0.7372,  loss:0.2895,  val_accuracy:0.7553,  val_loss:0.1889,  
.83/83 - 1s - loss: 0.2895 - accuracy: 0.7372 - val_loss: 0.1889 - val_accuracy: 0.7553 - 513ms/epoch - 6ms/step
…
