Here is a summary of this model: 
Model: "sequential"
_________________________________________________________________
 Layer (type)                Output Shape              Param #   
=================================================================
 dense (Dense)               (None, 3)                 12        
                                                                 
 dense_1 (Dense)             (None, 40)                160       
                                                                 
 dense_2 (Dense)             (None, 8)                 328       
                                                                 
 dense_3 (Dense)             (None, 40)                360       
                                                                 
 dense_4 (Dense)             (None, 40)                1640      
                                                                 
 dense_5 (Dense)             (None, 8)                 328       
                                                                 
 dense_6 (Dense)             (None, 1)                 9         
                                                                 
=================================================================
Total params: 2,837
Trainable params: 2,837
Non-trainable params: 0
_________________________________________________________________
Epoch 1/100

Epoch: 0, accuracy:0.5162,  loss:44.5718,  val_accuracy:0.1679,  val_loss:141.2147,  
.129/129 - 1s - loss: 44.5718 - accuracy: 0.5162 - val_loss: 141.2147 - val_accuracy: 0.1679 - 556ms/epoch - 4ms/step
…
